{"class_name": "Model", "config": {"name": "model_8", "layers": [{"name": "input_16", "class_name": "InputLayer", "config": {"batch_input_shape": [null, 256, 256, 3], "dtype": "float32", "sparse": false, "name": "input_16"}, "inbound_nodes": []}, {"name": "xception", "class_name": "Model", "config": {"name": "xception", "layers": [{"name": "input_15", "class_name": "InputLayer", "config": {"batch_input_shape": [null, 256, 256, 3], "dtype": "float32", "sparse": false, "name": "input_15"}, "inbound_nodes": []}, {"name": "block1_conv1", "class_name": "Conv2D", "config": {"name": "block1_conv1", "trainable": true, "filters": 32, "kernel_size": [3, 3], "strides": [2, 2], "padding": "valid", "data_format": "channels_last", "dilation_rate": [1, 1], "activation": "linear", "use_bias": false, "kernel_initializer": {"class_name": "VarianceScaling", "config": {"scale": 1.0, "mode": "fan_avg", "distribution": "uniform", "seed": null}}, "bias_initializer": {"class_name": "Zeros", "config": {}}, "kernel_regularizer": null, "bias_regularizer": null, "activity_regularizer": null, "kernel_constraint": null, "bias_constraint": null}, "inbound_nodes": [[["input_15", 0, 0, {}]]]}, {"name": "block1_conv1_bn", "class_name": "BatchNormalization", "config": {"name": "block1_conv1_bn", "trainable": true, "axis": -1, "momentum": 0.99, "epsilon": 0.001, "center": true, "scale": true, "beta_initializer": {"class_name": "Zeros", "config": {}}, "gamma_initializer": {"class_name": "Ones", "config": {}}, "moving_mean_initializer": {"class_name": "Zeros", "config": {}}, "moving_variance_initializer": {"class_name": "Ones", "config": {}}, "beta_regularizer": null, "gamma_regularizer": null, "beta_constraint": null, "gamma_constraint": null}, "inbound_nodes": [[["block1_conv1", 0, 0, {}]]]}, {"name": "block1_conv1_act", "class_name": "Activation", "config": {"name": "block1_conv1_act", "trainable": true, "activation": "relu"}, "inbound_nodes": [[["block1_conv1_bn", 0, 0, {}]]]}, {"name": "block1_conv2", "class_name": "Conv2D", "config": {"name": "block1_conv2", "trainable": true, "filters": 64, "kernel_size": [3, 3], "strides": [1, 1], "padding": "valid", "data_format": "channels_last", "dilation_rate": [1, 1], "activation": "linear", "use_bias": false, "kernel_initializer": {"class_name": "VarianceScaling", "config": {"scale": 1.0, "mode": "fan_avg", "distribution": "uniform", "seed": null}}, "bias_initializer": {"class_name": "Zeros", "config": {}}, "kernel_regularizer": null, "bias_regularizer": null, "activity_regularizer": null, "kernel_constraint": null, "bias_constraint": null}, "inbound_nodes": [[["block1_conv1_act", 0, 0, {}]]]}, {"name": "block1_conv2_bn", "class_name": "BatchNormalization", "config": {"name": "block1_conv2_bn", "trainable": true, "axis": -1, "momentum": 0.99, "epsilon": 0.001, "center": true, "scale": true, "beta_initializer": {"class_name": "Zeros", "config": {}}, "gamma_initializer": {"class_name": "Ones", "config": {}}, "moving_mean_initializer": {"class_name": "Zeros", "config": {}}, "moving_variance_initializer": {"class_name": "Ones", "config": {}}, "beta_regularizer": null, "gamma_regularizer": null, "beta_constraint": null, "gamma_constraint": null}, "inbound_nodes": [[["block1_conv2", 0, 0, {}]]]}, {"name": "block1_conv2_act", "class_name": "Activation", "config": {"name": "block1_conv2_act", "trainable": true, "activation": "relu"}, "inbound_nodes": [[["block1_conv2_bn", 0, 0, {}]]]}, {"name": "block2_sepconv1", "class_name": "SeparableConv2D", "config": {"name": "block2_sepconv1", "trainable": true, "filters": 128, "kernel_size": [3, 3], "strides": [1, 1], "padding": "same", "data_format": "channels_last", "dilation_rate": [1, 1], "activation": "linear", "use_bias": false, "bias_initializer": {"class_name": "Zeros", "config": {}}, "bias_regularizer": null, "activity_regularizer": null, "bias_constraint": null, "depth_multiplier": 1, "depthwise_initializer": {"class_name": "VarianceScaling", "config": {"scale": 1.0, "mode": "fan_avg", "distribution": "uniform", "seed": null}}, "pointwise_initializer": {"class_name": "VarianceScaling", "config": {"scale": 1.0, "mode": "fan_avg", "distribution": "uniform", "seed": null}}, "depthwise_regularizer": null, "pointwise_regularizer": null, "depthwise_constraint": null, "pointwise_constraint": null}, "inbound_nodes": [[["block1_conv2_act", 0, 0, {}]]]}, {"name": "block2_sepconv1_bn", "class_name": "BatchNormalization", "config": {"name": "block2_sepconv1_bn", "trainable": true, "axis": -1, "momentum": 0.99, "epsilon": 0.001, "center": true, "scale": true, "beta_initializer": {"class_name": "Zeros", "config": {}}, "gamma_initializer": {"class_name": "Ones", "config": {}}, "moving_mean_initializer": {"class_name": "Zeros", "config": {}}, "moving_variance_initializer": {"class_name": "Ones", "config": {}}, "beta_regularizer": null, "gamma_regularizer": null, "beta_constraint": null, "gamma_constraint": null}, "inbound_nodes": [[["block2_sepconv1", 0, 0, {}]]]}, {"name": "block2_sepconv2_act", "class_name": "Activation", "config": {"name": "block2_sepconv2_act", "trainable": true, "activation": "relu"}, "inbound_nodes": [[["block2_sepconv1_bn", 0, 0, {}]]]}, {"name": "block2_sepconv2", "class_name": "SeparableConv2D", "config": {"name": "block2_sepconv2", "trainable": true, "filters": 128, "kernel_size": [3, 3], "strides": [1, 1], "padding": "same", "data_format": "channels_last", "dilation_rate": [1, 1], "activation": "linear", "use_bias": false, "bias_initializer": {"class_name": "Zeros", "config": {}}, "bias_regularizer": null, "activity_regularizer": null, "bias_constraint": null, "depth_multiplier": 1, "depthwise_initializer": {"class_name": "VarianceScaling", "config": {"scale": 1.0, "mode": "fan_avg", "distribution": "uniform", "seed": null}}, "pointwise_initializer": {"class_name": "VarianceScaling", "config": {"scale": 1.0, "mode": "fan_avg", "distribution": "uniform", "seed": null}}, "depthwise_regularizer": null, "pointwise_regularizer": null, "depthwise_constraint": null, "pointwise_constraint": null}, "inbound_nodes": [[["block2_sepconv2_act", 0, 0, {}]]]}, {"name": "block2_sepconv2_bn", "class_name": "BatchNormalization", "config": {"name": "block2_sepconv2_bn", "trainable": true, "axis": -1, "momentum": 0.99, "epsilon": 0.001, "center": true, "scale": true, "beta_initializer": {"class_name": "Zeros", "config": {}}, "gamma_initializer": {"class_name": "Ones", "config": {}}, "moving_mean_initializer": {"class_name": "Zeros", "config": {}}, "moving_variance_initializer": {"class_name": "Ones", "config": {}}, "beta_regularizer": null, "gamma_regularizer": null, "beta_constraint": null, "gamma_constraint": null}, "inbound_nodes": [[["block2_sepconv2", 0, 0, {}]]]}, {"name": "conv2d_29", "class_name": "Conv2D", "config": {"name": "conv2d_29", "trainable": true, "filters": 128, "kernel_size": [1, 1], "strides": [2, 2], "padding": "same", "data_format": "channels_last", "dilation_rate": [1, 1], "activation": "linear", "use_bias": false, "kernel_initializer": {"class_name": "VarianceScaling", "config": {"scale": 1.0, "mode": "fan_avg", "distribution": "uniform", "seed": null}}, "bias_initializer": {"class_name": "Zeros", "config": {}}, "kernel_regularizer": null, "bias_regularizer": null, "activity_regularizer": null, "kernel_constraint": null, "bias_constraint": null}, "inbound_nodes": [[["block1_conv2_act", 0, 0, {}]]]}, {"name": "block2_pool", "class_name": "MaxPooling2D", "config": {"name": "block2_pool", "trainable": true, "pool_size": [3, 3], "padding": "same", "strides": [2, 2], "data_format": "channels_last"}, "inbound_nodes": [[["block2_sepconv2_bn", 0, 0, {}]]]}, {"name": "batch_normalization_29", "class_name": "BatchNormalization", "config": {"name": "batch_normalization_29", "trainable": true, "axis": -1, "momentum": 0.99, "epsilon": 0.001, "center": true, "scale": true, "beta_initializer": {"class_name": "Zeros", "config": {}}, "gamma_initializer": {"class_name": "Ones", "config": {}}, "moving_mean_initializer": {"class_name": "Zeros", "config": {}}, "moving_variance_initializer": {"class_name": "Ones", "config": {}}, "beta_regularizer": null, "gamma_regularizer": null, "beta_constraint": null, "gamma_constraint": null}, "inbound_nodes": [[["conv2d_29", 0, 0, {}]]]}, {"name": "add_85", "class_name": "Add", "config": {"name": "add_85", "trainable": true}, "inbound_nodes": [[["block2_pool", 0, 0, {}], ["batch_normalization_29", 0, 0, {}]]]}, {"name": "block3_sepconv1_act", "class_name": "Activation", "config": {"name": "block3_sepconv1_act", "trainable": true, "activation": "relu"}, "inbound_nodes": [[["add_85", 0, 0, {}]]]}, {"name": "block3_sepconv1", "class_name": "SeparableConv2D", "config": {"name": "block3_sepconv1", "trainable": true, "filters": 256, "kernel_size": [3, 3], "strides": [1, 1], "padding": "same", "data_format": "channels_last", "dilation_rate": [1, 1], "activation": "linear", "use_bias": false, "bias_initializer": {"class_name": "Zeros", "config": {}}, "bias_regularizer": null, "activity_regularizer": null, "bias_constraint": null, "depth_multiplier": 1, "depthwise_initializer": {"class_name": "VarianceScaling", "config": {"scale": 1.0, "mode": "fan_avg", "distribution": "uniform", "seed": null}}, "pointwise_initializer": {"class_name": "VarianceScaling", "config": {"scale": 1.0, "mode": "fan_avg", "distribution": "uniform", "seed": null}}, "depthwise_regularizer": null, "pointwise_regularizer": null, "depthwise_constraint": null, "pointwise_constraint": null}, "inbound_nodes": [[["block3_sepconv1_act", 0, 0, {}]]]}, {"name": "block3_sepconv1_bn", "class_name": "BatchNormalization", "config": {"name": "block3_sepconv1_bn", "trainable": true, "axis": -1, "momentum": 0.99, "epsilon": 0.001, "center": true, "scale": true, "beta_initializer": {"class_name": "Zeros", "config": {}}, "gamma_initializer": {"class_name": "Ones", "config": {}}, "moving_mean_initializer": {"class_name": "Zeros", "config": {}}, "moving_variance_initializer": {"class_name": "Ones", "config": {}}, "beta_regularizer": null, "gamma_regularizer": null, "beta_constraint": null, "gamma_constraint": null}, "inbound_nodes": [[["block3_sepconv1", 0, 0, {}]]]}, {"name": "block3_sepconv2_act", "class_name": "Activation", "config": {"name": "block3_sepconv2_act", "trainable": true, "activation": "relu"}, "inbound_nodes": [[["block3_sepconv1_bn", 0, 0, {}]]]}, {"name": "block3_sepconv2", "class_name": "SeparableConv2D", "config": {"name": "block3_sepconv2", "trainable": true, "filters": 256, "kernel_size": [3, 3], "strides": [1, 1], "padding": "same", "data_format": "channels_last", "dilation_rate": [1, 1], "activation": "linear", "use_bias": false, "bias_initializer": {"class_name": "Zeros", "config": {}}, "bias_regularizer": null, "activity_regularizer": null, "bias_constraint": null, "depth_multiplier": 1, "depthwise_initializer": {"class_name": "VarianceScaling", "config": {"scale": 1.0, "mode": "fan_avg", "distribution": "uniform", "seed": null}}, "pointwise_initializer": {"class_name": "VarianceScaling", "config": {"scale": 1.0, "mode": "fan_avg", "distribution": "uniform", "seed": null}}, "depthwise_regularizer": null, "pointwise_regularizer": null, "depthwise_constraint": null, "pointwise_constraint": null}, "inbound_nodes": [[["block3_sepconv2_act", 0, 0, {}]]]}, {"name": "block3_sepconv2_bn", "class_name": "BatchNormalization", "config": {"name": "block3_sepconv2_bn", "trainable": true, "axis": -1, "momentum": 0.99, "epsilon": 0.001, "center": true, "scale": true, "beta_initializer": {"class_name": "Zeros", "config": {}}, "gamma_initializer": {"class_name": "Ones", "config": {}}, "moving_mean_initializer": {"class_name": "Zeros", "config": {}}, "moving_variance_initializer": {"class_name": "Ones", "config": {}}, "beta_regularizer": null, "gamma_regularizer": null, "beta_constraint": null, "gamma_constraint": null}, "inbound_nodes": [[["block3_sepconv2", 0, 0, {}]]]}, {"name": "conv2d_30", "class_name": "Conv2D", "config": {"name": "conv2d_30", "trainable": true, "filters": 256, "kernel_size": [1, 1], "strides": [2, 2], "padding": "same", "data_format": "channels_last", "dilation_rate": [1, 1], "activation": "linear", "use_bias": false, "kernel_initializer": {"class_name": "VarianceScaling", "config": {"scale": 1.0, "mode": "fan_avg", "distribution": "uniform", "seed": null}}, "bias_initializer": {"class_name": "Zeros", "config": {}}, "kernel_regularizer": null, "bias_regularizer": null, "activity_regularizer": null, "kernel_constraint": null, "bias_constraint": null}, "inbound_nodes": [[["add_85", 0, 0, {}]]]}, {"name": "block3_pool", "class_name": "MaxPooling2D", "config": {"name": "block3_pool", "trainable": true, "pool_size": [3, 3], "padding": "same", "strides": [2, 2], "data_format": "channels_last"}, "inbound_nodes": [[["block3_sepconv2_bn", 0, 0, {}]]]}, {"name": "batch_normalization_30", "class_name": "BatchNormalization", "config": {"name": "batch_normalization_30", "trainable": true, "axis": -1, "momentum": 0.99, "epsilon": 0.001, "center": true, "scale": true, "beta_initializer": {"class_name": "Zeros", "config": {}}, "gamma_initializer": {"class_name": "Ones", "config": {}}, "moving_mean_initializer": {"class_name": "Zeros", "config": {}}, "moving_variance_initializer": {"class_name": "Ones", "config": {}}, "beta_regularizer": null, "gamma_regularizer": null, "beta_constraint": null, "gamma_constraint": null}, "inbound_nodes": [[["conv2d_30", 0, 0, {}]]]}, {"name": "add_86", "class_name": "Add", "config": {"name": "add_86", "trainable": true}, "inbound_nodes": [[["block3_pool", 0, 0, {}], ["batch_normalization_30", 0, 0, {}]]]}, {"name": "block4_sepconv1_act", "class_name": "Activation", "config": {"name": "block4_sepconv1_act", "trainable": true, "activation": "relu"}, "inbound_nodes": [[["add_86", 0, 0, {}]]]}, {"name": "block4_sepconv1", "class_name": "SeparableConv2D", "config": {"name": "block4_sepconv1", "trainable": true, "filters": 728, "kernel_size": [3, 3], "strides": [1, 1], "padding": "same", "data_format": "channels_last", "dilation_rate": [1, 1], "activation": "linear", "use_bias": false, "bias_initializer": {"class_name": "Zeros", "config": {}}, "bias_regularizer": null, "activity_regularizer": null, "bias_constraint": null, "depth_multiplier": 1, "depthwise_initializer": {"class_name": "VarianceScaling", "config": {"scale": 1.0, "mode": "fan_avg", "distribution": "uniform", "seed": null}}, "pointwise_initializer": {"class_name": "VarianceScaling", "config": {"scale": 1.0, "mode": "fan_avg", "distribution": "uniform", "seed": null}}, "depthwise_regularizer": null, "pointwise_regularizer": null, "depthwise_constraint": null, "pointwise_constraint": null}, "inbound_nodes": [[["block4_sepconv1_act", 0, 0, {}]]]}, {"name": "block4_sepconv1_bn", "class_name": "BatchNormalization", "config": {"name": "block4_sepconv1_bn", "trainable": true, "axis": -1, "momentum": 0.99, "epsilon": 0.001, "center": true, "scale": true, "beta_initializer": {"class_name": "Zeros", "config": {}}, "gamma_initializer": {"class_name": "Ones", "config": {}}, "moving_mean_initializer": {"class_name": "Zeros", "config": {}}, "moving_variance_initializer": {"class_name": "Ones", "config": {}}, "beta_regularizer": null, "gamma_regularizer": null, "beta_constraint": null, "gamma_constraint": null}, "inbound_nodes": [[["block4_sepconv1", 0, 0, {}]]]}, {"name": "block4_sepconv2_act", "class_name": "Activation", "config": {"name": "block4_sepconv2_act", "trainable": true, "activation": "relu"}, "inbound_nodes": [[["block4_sepconv1_bn", 0, 0, {}]]]}, {"name": "block4_sepconv2", "class_name": "SeparableConv2D", "config": {"name": "block4_sepconv2", "trainable": true, "filters": 728, "kernel_size": [3, 3], "strides": [1, 1], "padding": "same", "data_format": "channels_last", "dilation_rate": [1, 1], "activation": "linear", "use_bias": false, "bias_initializer": {"class_name": "Zeros", "config": {}}, "bias_regularizer": null, "activity_regularizer": null, "bias_constraint": null, "depth_multiplier": 1, "depthwise_initializer": {"class_name": "VarianceScaling", "config": {"scale": 1.0, "mode": "fan_avg", "distribution": "uniform", "seed": null}}, "pointwise_initializer": {"class_name": "VarianceScaling", "config": {"scale": 1.0, "mode": "fan_avg", "distribution": "uniform", "seed": null}}, "depthwise_regularizer": null, "pointwise_regularizer": null, "depthwise_constraint": null, "pointwise_constraint": null}, "inbound_nodes": [[["block4_sepconv2_act", 0, 0, {}]]]}, {"name": "block4_sepconv2_bn", "class_name": "BatchNormalization", "config": {"name": "block4_sepconv2_bn", "trainable": true, "axis": -1, "momentum": 0.99, "epsilon": 0.001, "center": true, "scale": true, "beta_initializer": {"class_name": "Zeros", "config": {}}, "gamma_initializer": {"class_name": "Ones", "config": {}}, "moving_mean_initializer": {"class_name": "Zeros", "config": {}}, "moving_variance_initializer": {"class_name": "Ones", "config": {}}, "beta_regularizer": null, "gamma_regularizer": null, "beta_constraint": null, "gamma_constraint": null}, "inbound_nodes": [[["block4_sepconv2", 0, 0, {}]]]}, {"name": "conv2d_31", "class_name": "Conv2D", "config": {"name": "conv2d_31", "trainable": true, "filters": 728, "kernel_size": [1, 1], "strides": [2, 2], "padding": "same", "data_format": "channels_last", "dilation_rate": [1, 1], "activation": "linear", "use_bias": false, "kernel_initializer": {"class_name": "VarianceScaling", "config": {"scale": 1.0, "mode": "fan_avg", "distribution": "uniform", "seed": null}}, "bias_initializer": {"class_name": "Zeros", "config": {}}, "kernel_regularizer": null, "bias_regularizer": null, "activity_regularizer": null, "kernel_constraint": null, "bias_constraint": null}, "inbound_nodes": [[["add_86", 0, 0, {}]]]}, {"name": "block4_pool", "class_name": "MaxPooling2D", "config": {"name": "block4_pool", "trainable": true, "pool_size": [3, 3], "padding": "same", "strides": [2, 2], "data_format": "channels_last"}, "inbound_nodes": [[["block4_sepconv2_bn", 0, 0, {}]]]}, {"name": "batch_normalization_31", "class_name": "BatchNormalization", "config": {"name": "batch_normalization_31", "trainable": true, "axis": -1, "momentum": 0.99, "epsilon": 0.001, "center": true, "scale": true, "beta_initializer": {"class_name": "Zeros", "config": {}}, "gamma_initializer": {"class_name": "Ones", "config": {}}, "moving_mean_initializer": {"class_name": "Zeros", "config": {}}, "moving_variance_initializer": {"class_name": "Ones", "config": {}}, "beta_regularizer": null, "gamma_regularizer": null, "beta_constraint": null, "gamma_constraint": null}, "inbound_nodes": [[["conv2d_31", 0, 0, {}]]]}, {"name": "add_87", "class_name": "Add", "config": {"name": "add_87", "trainable": true}, "inbound_nodes": [[["block4_pool", 0, 0, {}], ["batch_normalization_31", 0, 0, {}]]]}, {"name": "block5_sepconv1_act", "class_name": "Activation", "config": {"name": "block5_sepconv1_act", "trainable": true, "activation": "relu"}, "inbound_nodes": [[["add_87", 0, 0, {}]]]}, {"name": "block5_sepconv1", "class_name": "SeparableConv2D", "config": {"name": "block5_sepconv1", "trainable": true, "filters": 728, "kernel_size": [3, 3], "strides": [1, 1], "padding": "same", "data_format": "channels_last", "dilation_rate": [1, 1], "activation": "linear", "use_bias": false, "bias_initializer": {"class_name": "Zeros", "config": {}}, "bias_regularizer": null, "activity_regularizer": null, "bias_constraint": null, "depth_multiplier": 1, "depthwise_initializer": {"class_name": "VarianceScaling", "config": {"scale": 1.0, "mode": "fan_avg", "distribution": "uniform", "seed": null}}, "pointwise_initializer": {"class_name": "VarianceScaling", "config": {"scale": 1.0, "mode": "fan_avg", "distribution": "uniform", "seed": null}}, "depthwise_regularizer": null, "pointwise_regularizer": null, "depthwise_constraint": null, "pointwise_constraint": null}, "inbound_nodes": [[["block5_sepconv1_act", 0, 0, {}]]]}, {"name": "block5_sepconv1_bn", "class_name": "BatchNormalization", "config": {"name": "block5_sepconv1_bn", "trainable": true, "axis": -1, "momentum": 0.99, "epsilon": 0.001, "center": true, "scale": true, "beta_initializer": {"class_name": "Zeros", "config": {}}, "gamma_initializer": {"class_name": "Ones", "config": {}}, "moving_mean_initializer": {"class_name": "Zeros", "config": {}}, "moving_variance_initializer": {"class_name": "Ones", "config": {}}, "beta_regularizer": null, "gamma_regularizer": null, "beta_constraint": null, "gamma_constraint": null}, "inbound_nodes": [[["block5_sepconv1", 0, 0, {}]]]}, {"name": "block5_sepconv2_act", "class_name": "Activation", "config": {"name": "block5_sepconv2_act", "trainable": true, "activation": "relu"}, "inbound_nodes": [[["block5_sepconv1_bn", 0, 0, {}]]]}, {"name": "block5_sepconv2", "class_name": "SeparableConv2D", "config": {"name": "block5_sepconv2", "trainable": true, "filters": 728, "kernel_size": [3, 3], "strides": [1, 1], "padding": "same", "data_format": "channels_last", "dilation_rate": [1, 1], "activation": "linear", "use_bias": false, "bias_initializer": {"class_name": "Zeros", "config": {}}, "bias_regularizer": null, "activity_regularizer": null, "bias_constraint": null, "depth_multiplier": 1, "depthwise_initializer": {"class_name": "VarianceScaling", "config": {"scale": 1.0, "mode": "fan_avg", "distribution": "uniform", "seed": null}}, "pointwise_initializer": {"class_name": "VarianceScaling", "config": {"scale": 1.0, "mode": "fan_avg", "distribution": "uniform", "seed": null}}, "depthwise_regularizer": null, "pointwise_regularizer": null, "depthwise_constraint": null, "pointwise_constraint": null}, "inbound_nodes": [[["block5_sepconv2_act", 0, 0, {}]]]}, {"name": "block5_sepconv2_bn", "class_name": "BatchNormalization", "config": {"name": "block5_sepconv2_bn", "trainable": true, "axis": -1, "momentum": 0.99, "epsilon": 0.001, "center": true, "scale": true, "beta_initializer": {"class_name": "Zeros", "config": {}}, "gamma_initializer": {"class_name": "Ones", "config": {}}, "moving_mean_initializer": {"class_name": "Zeros", "config": {}}, "moving_variance_initializer": {"class_name": "Ones", "config": {}}, "beta_regularizer": null, "gamma_regularizer": null, "beta_constraint": null, "gamma_constraint": null}, "inbound_nodes": [[["block5_sepconv2", 0, 0, {}]]]}, {"name": "block5_sepconv3_act", "class_name": "Activation", "config": {"name": "block5_sepconv3_act", "trainable": true, "activation": "relu"}, "inbound_nodes": [[["block5_sepconv2_bn", 0, 0, {}]]]}, {"name": "block5_sepconv3", "class_name": "SeparableConv2D", "config": {"name": "block5_sepconv3", "trainable": true, "filters": 728, "kernel_size": [3, 3], "strides": [1, 1], "padding": "same", "data_format": "channels_last", "dilation_rate": [1, 1], "activation": "linear", "use_bias": false, "bias_initializer": {"class_name": "Zeros", "config": {}}, "bias_regularizer": null, "activity_regularizer": null, "bias_constraint": null, "depth_multiplier": 1, "depthwise_initializer": {"class_name": "VarianceScaling", "config": {"scale": 1.0, "mode": "fan_avg", "distribution": "uniform", "seed": null}}, "pointwise_initializer": {"class_name": "VarianceScaling", "config": {"scale": 1.0, "mode": "fan_avg", "distribution": "uniform", "seed": null}}, "depthwise_regularizer": null, "pointwise_regularizer": null, "depthwise_constraint": null, "pointwise_constraint": null}, "inbound_nodes": [[["block5_sepconv3_act", 0, 0, {}]]]}, {"name": "block5_sepconv3_bn", "class_name": "BatchNormalization", "config": {"name": "block5_sepconv3_bn", "trainable": true, "axis": -1, "momentum": 0.99, "epsilon": 0.001, "center": true, "scale": true, "beta_initializer": {"class_name": "Zeros", "config": {}}, "gamma_initializer": {"class_name": "Ones", "config": {}}, "moving_mean_initializer": {"class_name": "Zeros", "config": {}}, "moving_variance_initializer": {"class_name": "Ones", "config": {}}, "beta_regularizer": null, "gamma_regularizer": null, "beta_constraint": null, "gamma_constraint": null}, "inbound_nodes": [[["block5_sepconv3", 0, 0, {}]]]}, {"name": "add_88", "class_name": "Add", "config": {"name": "add_88", "trainable": true}, "inbound_nodes": [[["block5_sepconv3_bn", 0, 0, {}], ["add_87", 0, 0, {}]]]}, {"name": "block6_sepconv1_act", "class_name": "Activation", "config": {"name": "block6_sepconv1_act", "trainable": true, "activation": "relu"}, "inbound_nodes": [[["add_88", 0, 0, {}]]]}, {"name": "block6_sepconv1", "class_name": "SeparableConv2D", "config": {"name": "block6_sepconv1", "trainable": true, "filters": 728, "kernel_size": [3, 3], "strides": [1, 1], "padding": "same", "data_format": "channels_last", "dilation_rate": [1, 1], "activation": "linear", "use_bias": false, "bias_initializer": {"class_name": "Zeros", "config": {}}, "bias_regularizer": null, "activity_regularizer": null, "bias_constraint": null, "depth_multiplier": 1, "depthwise_initializer": {"class_name": "VarianceScaling", "config": {"scale": 1.0, "mode": "fan_avg", "distribution": "uniform", "seed": null}}, "pointwise_initializer": {"class_name": "VarianceScaling", "config": {"scale": 1.0, "mode": "fan_avg", "distribution": "uniform", "seed": null}}, "depthwise_regularizer": null, "pointwise_regularizer": null, "depthwise_constraint": null, "pointwise_constraint": null}, "inbound_nodes": [[["block6_sepconv1_act", 0, 0, {}]]]}, {"name": "block6_sepconv1_bn", "class_name": "BatchNormalization", "config": {"name": "block6_sepconv1_bn", "trainable": true, "axis": -1, "momentum": 0.99, "epsilon": 0.001, "center": true, "scale": true, "beta_initializer": {"class_name": "Zeros", "config": {}}, "gamma_initializer": {"class_name": "Ones", "config": {}}, "moving_mean_initializer": {"class_name": "Zeros", "config": {}}, "moving_variance_initializer": {"class_name": "Ones", "config": {}}, "beta_regularizer": null, "gamma_regularizer": null, "beta_constraint": null, "gamma_constraint": null}, "inbound_nodes": [[["block6_sepconv1", 0, 0, {}]]]}, {"name": "block6_sepconv2_act", "class_name": "Activation", "config": {"name": "block6_sepconv2_act", "trainable": true, "activation": "relu"}, "inbound_nodes": [[["block6_sepconv1_bn", 0, 0, {}]]]}, {"name": "block6_sepconv2", "class_name": "SeparableConv2D", "config": {"name": "block6_sepconv2", "trainable": true, "filters": 728, "kernel_size": [3, 3], "strides": [1, 1], "padding": "same", "data_format": "channels_last", "dilation_rate": [1, 1], "activation": "linear", "use_bias": false, "bias_initializer": {"class_name": "Zeros", "config": {}}, "bias_regularizer": null, "activity_regularizer": null, "bias_constraint": null, "depth_multiplier": 1, "depthwise_initializer": {"class_name": "VarianceScaling", "config": {"scale": 1.0, "mode": "fan_avg", "distribution": "uniform", "seed": null}}, "pointwise_initializer": {"class_name": "VarianceScaling", "config": {"scale": 1.0, "mode": "fan_avg", "distribution": "uniform", "seed": null}}, "depthwise_regularizer": null, "pointwise_regularizer": null, "depthwise_constraint": null, "pointwise_constraint": null}, "inbound_nodes": [[["block6_sepconv2_act", 0, 0, {}]]]}, {"name": "block6_sepconv2_bn", "class_name": "BatchNormalization", "config": {"name": "block6_sepconv2_bn", "trainable": true, "axis": -1, "momentum": 0.99, "epsilon": 0.001, "center": true, "scale": true, "beta_initializer": {"class_name": "Zeros", "config": {}}, "gamma_initializer": {"class_name": "Ones", "config": {}}, "moving_mean_initializer": {"class_name": "Zeros", "config": {}}, "moving_variance_initializer": {"class_name": "Ones", "config": {}}, "beta_regularizer": null, "gamma_regularizer": null, "beta_constraint": null, "gamma_constraint": null}, "inbound_nodes": [[["block6_sepconv2", 0, 0, {}]]]}, {"name": "block6_sepconv3_act", "class_name": "Activation", "config": {"name": "block6_sepconv3_act", "trainable": true, "activation": "relu"}, "inbound_nodes": [[["block6_sepconv2_bn", 0, 0, {}]]]}, {"name": "block6_sepconv3", "class_name": "SeparableConv2D", "config": {"name": "block6_sepconv3", "trainable": true, "filters": 728, "kernel_size": [3, 3], "strides": [1, 1], "padding": "same", "data_format": "channels_last", "dilation_rate": [1, 1], "activation": "linear", "use_bias": false, "bias_initializer": {"class_name": "Zeros", "config": {}}, "bias_regularizer": null, "activity_regularizer": null, "bias_constraint": null, "depth_multiplier": 1, "depthwise_initializer": {"class_name": "VarianceScaling", "config": {"scale": 1.0, "mode": "fan_avg", "distribution": "uniform", "seed": null}}, "pointwise_initializer": {"class_name": "VarianceScaling", "config": {"scale": 1.0, "mode": "fan_avg", "distribution": "uniform", "seed": null}}, "depthwise_regularizer": null, "pointwise_regularizer": null, "depthwise_constraint": null, "pointwise_constraint": null}, "inbound_nodes": [[["block6_sepconv3_act", 0, 0, {}]]]}, {"name": "block6_sepconv3_bn", "class_name": "BatchNormalization", "config": {"name": "block6_sepconv3_bn", "trainable": true, "axis": -1, "momentum": 0.99, "epsilon": 0.001, "center": true, "scale": true, "beta_initializer": {"class_name": "Zeros", "config": {}}, "gamma_initializer": {"class_name": "Ones", "config": {}}, "moving_mean_initializer": {"class_name": "Zeros", "config": {}}, "moving_variance_initializer": {"class_name": "Ones", "config": {}}, "beta_regularizer": null, "gamma_regularizer": null, "beta_constraint": null, "gamma_constraint": null}, "inbound_nodes": [[["block6_sepconv3", 0, 0, {}]]]}, {"name": "add_89", "class_name": "Add", "config": {"name": "add_89", "trainable": true}, "inbound_nodes": [[["block6_sepconv3_bn", 0, 0, {}], ["add_88", 0, 0, {}]]]}, {"name": "block7_sepconv1_act", "class_name": "Activation", "config": {"name": "block7_sepconv1_act", "trainable": true, "activation": "relu"}, "inbound_nodes": [[["add_89", 0, 0, {}]]]}, {"name": "block7_sepconv1", "class_name": "SeparableConv2D", "config": {"name": "block7_sepconv1", "trainable": true, "filters": 728, "kernel_size": [3, 3], "strides": [1, 1], "padding": "same", "data_format": "channels_last", "dilation_rate": [1, 1], "activation": "linear", "use_bias": false, "bias_initializer": {"class_name": "Zeros", "config": {}}, "bias_regularizer": null, "activity_regularizer": null, "bias_constraint": null, "depth_multiplier": 1, "depthwise_initializer": {"class_name": "VarianceScaling", "config": {"scale": 1.0, "mode": "fan_avg", "distribution": "uniform", "seed": null}}, "pointwise_initializer": {"class_name": "VarianceScaling", "config": {"scale": 1.0, "mode": "fan_avg", "distribution": "uniform", "seed": null}}, "depthwise_regularizer": null, "pointwise_regularizer": null, "depthwise_constraint": null, "pointwise_constraint": null}, "inbound_nodes": [[["block7_sepconv1_act", 0, 0, {}]]]}, {"name": "block7_sepconv1_bn", "class_name": "BatchNormalization", "config": {"name": "block7_sepconv1_bn", "trainable": true, "axis": -1, "momentum": 0.99, "epsilon": 0.001, "center": true, "scale": true, "beta_initializer": {"class_name": "Zeros", "config": {}}, "gamma_initializer": {"class_name": "Ones", "config": {}}, "moving_mean_initializer": {"class_name": "Zeros", "config": {}}, "moving_variance_initializer": {"class_name": "Ones", "config": {}}, "beta_regularizer": null, "gamma_regularizer": null, "beta_constraint": null, "gamma_constraint": null}, "inbound_nodes": [[["block7_sepconv1", 0, 0, {}]]]}, {"name": "block7_sepconv2_act", "class_name": "Activation", "config": {"name": "block7_sepconv2_act", "trainable": true, "activation": "relu"}, "inbound_nodes": [[["block7_sepconv1_bn", 0, 0, {}]]]}, {"name": "block7_sepconv2", "class_name": "SeparableConv2D", "config": {"name": "block7_sepconv2", "trainable": true, "filters": 728, "kernel_size": [3, 3], "strides": [1, 1], "padding": "same", "data_format": "channels_last", "dilation_rate": [1, 1], "activation": "linear", "use_bias": false, "bias_initializer": {"class_name": "Zeros", "config": {}}, "bias_regularizer": null, "activity_regularizer": null, "bias_constraint": null, "depth_multiplier": 1, "depthwise_initializer": {"class_name": "VarianceScaling", "config": {"scale": 1.0, "mode": "fan_avg", "distribution": "uniform", "seed": null}}, "pointwise_initializer": {"class_name": "VarianceScaling", "config": {"scale": 1.0, "mode": "fan_avg", "distribution": "uniform", "seed": null}}, "depthwise_regularizer": null, "pointwise_regularizer": null, "depthwise_constraint": null, "pointwise_constraint": null}, "inbound_nodes": [[["block7_sepconv2_act", 0, 0, {}]]]}, {"name": "block7_sepconv2_bn", "class_name": "BatchNormalization", "config": {"name": "block7_sepconv2_bn", "trainable": true, "axis": -1, "momentum": 0.99, "epsilon": 0.001, "center": true, "scale": true, "beta_initializer": {"class_name": "Zeros", "config": {}}, "gamma_initializer": {"class_name": "Ones", "config": {}}, "moving_mean_initializer": {"class_name": "Zeros", "config": {}}, "moving_variance_initializer": {"class_name": "Ones", "config": {}}, "beta_regularizer": null, "gamma_regularizer": null, "beta_constraint": null, "gamma_constraint": null}, "inbound_nodes": [[["block7_sepconv2", 0, 0, {}]]]}, {"name": "block7_sepconv3_act", "class_name": "Activation", "config": {"name": "block7_sepconv3_act", "trainable": true, "activation": "relu"}, "inbound_nodes": [[["block7_sepconv2_bn", 0, 0, {}]]]}, {"name": "block7_sepconv3", "class_name": "SeparableConv2D", "config": {"name": "block7_sepconv3", "trainable": true, "filters": 728, "kernel_size": [3, 3], "strides": [1, 1], "padding": "same", "data_format": "channels_last", "dilation_rate": [1, 1], "activation": "linear", "use_bias": false, "bias_initializer": {"class_name": "Zeros", "config": {}}, "bias_regularizer": null, "activity_regularizer": null, "bias_constraint": null, "depth_multiplier": 1, "depthwise_initializer": {"class_name": "VarianceScaling", "config": {"scale": 1.0, "mode": "fan_avg", "distribution": "uniform", "seed": null}}, "pointwise_initializer": {"class_name": "VarianceScaling", "config": {"scale": 1.0, "mode": "fan_avg", "distribution": "uniform", "seed": null}}, "depthwise_regularizer": null, "pointwise_regularizer": null, "depthwise_constraint": null, "pointwise_constraint": null}, "inbound_nodes": [[["block7_sepconv3_act", 0, 0, {}]]]}, {"name": "block7_sepconv3_bn", "class_name": "BatchNormalization", "config": {"name": "block7_sepconv3_bn", "trainable": true, "axis": -1, "momentum": 0.99, "epsilon": 0.001, "center": true, "scale": true, "beta_initializer": {"class_name": "Zeros", "config": {}}, "gamma_initializer": {"class_name": "Ones", "config": {}}, "moving_mean_initializer": {"class_name": "Zeros", "config": {}}, "moving_variance_initializer": {"class_name": "Ones", "config": {}}, "beta_regularizer": null, "gamma_regularizer": null, "beta_constraint": null, "gamma_constraint": null}, "inbound_nodes": [[["block7_sepconv3", 0, 0, {}]]]}, {"name": "add_90", "class_name": "Add", "config": {"name": "add_90", "trainable": true}, "inbound_nodes": [[["block7_sepconv3_bn", 0, 0, {}], ["add_89", 0, 0, {}]]]}, {"name": "block8_sepconv1_act", "class_name": "Activation", "config": {"name": "block8_sepconv1_act", "trainable": true, "activation": "relu"}, "inbound_nodes": [[["add_90", 0, 0, {}]]]}, {"name": "block8_sepconv1", "class_name": "SeparableConv2D", "config": {"name": "block8_sepconv1", "trainable": true, "filters": 728, "kernel_size": [3, 3], "strides": [1, 1], "padding": "same", "data_format": "channels_last", "dilation_rate": [1, 1], "activation": "linear", "use_bias": false, "bias_initializer": {"class_name": "Zeros", "config": {}}, "bias_regularizer": null, "activity_regularizer": null, "bias_constraint": null, "depth_multiplier": 1, "depthwise_initializer": {"class_name": "VarianceScaling", "config": {"scale": 1.0, "mode": "fan_avg", "distribution": "uniform", "seed": null}}, "pointwise_initializer": {"class_name": "VarianceScaling", "config": {"scale": 1.0, "mode": "fan_avg", "distribution": "uniform", "seed": null}}, "depthwise_regularizer": null, "pointwise_regularizer": null, "depthwise_constraint": null, "pointwise_constraint": null}, "inbound_nodes": [[["block8_sepconv1_act", 0, 0, {}]]]}, {"name": "block8_sepconv1_bn", "class_name": "BatchNormalization", "config": {"name": "block8_sepconv1_bn", "trainable": true, "axis": -1, "momentum": 0.99, "epsilon": 0.001, "center": true, "scale": true, "beta_initializer": {"class_name": "Zeros", "config": {}}, "gamma_initializer": {"class_name": "Ones", "config": {}}, "moving_mean_initializer": {"class_name": "Zeros", "config": {}}, "moving_variance_initializer": {"class_name": "Ones", "config": {}}, "beta_regularizer": null, "gamma_regularizer": null, "beta_constraint": null, "gamma_constraint": null}, "inbound_nodes": [[["block8_sepconv1", 0, 0, {}]]]}, {"name": "block8_sepconv2_act", "class_name": "Activation", "config": {"name": "block8_sepconv2_act", "trainable": true, "activation": "relu"}, "inbound_nodes": [[["block8_sepconv1_bn", 0, 0, {}]]]}, {"name": "block8_sepconv2", "class_name": "SeparableConv2D", "config": {"name": "block8_sepconv2", "trainable": true, "filters": 728, "kernel_size": [3, 3], "strides": [1, 1], "padding": "same", "data_format": "channels_last", "dilation_rate": [1, 1], "activation": "linear", "use_bias": false, "bias_initializer": {"class_name": "Zeros", "config": {}}, "bias_regularizer": null, "activity_regularizer": null, "bias_constraint": null, "depth_multiplier": 1, "depthwise_initializer": {"class_name": "VarianceScaling", "config": {"scale": 1.0, "mode": "fan_avg", "distribution": "uniform", "seed": null}}, "pointwise_initializer": {"class_name": "VarianceScaling", "config": {"scale": 1.0, "mode": "fan_avg", "distribution": "uniform", "seed": null}}, "depthwise_regularizer": null, "pointwise_regularizer": null, "depthwise_constraint": null, "pointwise_constraint": null}, "inbound_nodes": [[["block8_sepconv2_act", 0, 0, {}]]]}, {"name": "block8_sepconv2_bn", "class_name": "BatchNormalization", "config": {"name": "block8_sepconv2_bn", "trainable": true, "axis": -1, "momentum": 0.99, "epsilon": 0.001, "center": true, "scale": true, "beta_initializer": {"class_name": "Zeros", "config": {}}, "gamma_initializer": {"class_name": "Ones", "config": {}}, "moving_mean_initializer": {"class_name": "Zeros", "config": {}}, "moving_variance_initializer": {"class_name": "Ones", "config": {}}, "beta_regularizer": null, "gamma_regularizer": null, "beta_constraint": null, "gamma_constraint": null}, "inbound_nodes": [[["block8_sepconv2", 0, 0, {}]]]}, {"name": "block8_sepconv3_act", "class_name": "Activation", "config": {"name": "block8_sepconv3_act", "trainable": true, "activation": "relu"}, "inbound_nodes": [[["block8_sepconv2_bn", 0, 0, {}]]]}, {"name": "block8_sepconv3", "class_name": "SeparableConv2D", "config": {"name": "block8_sepconv3", "trainable": true, "filters": 728, "kernel_size": [3, 3], "strides": [1, 1], "padding": "same", "data_format": "channels_last", "dilation_rate": [1, 1], "activation": "linear", "use_bias": false, "bias_initializer": {"class_name": "Zeros", "config": {}}, "bias_regularizer": null, "activity_regularizer": null, "bias_constraint": null, "depth_multiplier": 1, "depthwise_initializer": {"class_name": "VarianceScaling", "config": {"scale": 1.0, "mode": "fan_avg", "distribution": "uniform", "seed": null}}, "pointwise_initializer": {"class_name": "VarianceScaling", "config": {"scale": 1.0, "mode": "fan_avg", "distribution": "uniform", "seed": null}}, "depthwise_regularizer": null, "pointwise_regularizer": null, "depthwise_constraint": null, "pointwise_constraint": null}, "inbound_nodes": [[["block8_sepconv3_act", 0, 0, {}]]]}, {"name": "block8_sepconv3_bn", "class_name": "BatchNormalization", "config": {"name": "block8_sepconv3_bn", "trainable": true, "axis": -1, "momentum": 0.99, "epsilon": 0.001, "center": true, "scale": true, "beta_initializer": {"class_name": "Zeros", "config": {}}, "gamma_initializer": {"class_name": "Ones", "config": {}}, "moving_mean_initializer": {"class_name": "Zeros", "config": {}}, "moving_variance_initializer": {"class_name": "Ones", "config": {}}, "beta_regularizer": null, "gamma_regularizer": null, "beta_constraint": null, "gamma_constraint": null}, "inbound_nodes": [[["block8_sepconv3", 0, 0, {}]]]}, {"name": "add_91", "class_name": "Add", "config": {"name": "add_91", "trainable": true}, "inbound_nodes": [[["block8_sepconv3_bn", 0, 0, {}], ["add_90", 0, 0, {}]]]}, {"name": "block9_sepconv1_act", "class_name": "Activation", "config": {"name": "block9_sepconv1_act", "trainable": true, "activation": "relu"}, "inbound_nodes": [[["add_91", 0, 0, {}]]]}, {"name": "block9_sepconv1", "class_name": "SeparableConv2D", "config": {"name": "block9_sepconv1", "trainable": true, "filters": 728, "kernel_size": [3, 3], "strides": [1, 1], "padding": "same", "data_format": "channels_last", "dilation_rate": [1, 1], "activation": "linear", "use_bias": false, "bias_initializer": {"class_name": "Zeros", "config": {}}, "bias_regularizer": null, "activity_regularizer": null, "bias_constraint": null, "depth_multiplier": 1, "depthwise_initializer": {"class_name": "VarianceScaling", "config": {"scale": 1.0, "mode": "fan_avg", "distribution": "uniform", "seed": null}}, "pointwise_initializer": {"class_name": "VarianceScaling", "config": {"scale": 1.0, "mode": "fan_avg", "distribution": "uniform", "seed": null}}, "depthwise_regularizer": null, "pointwise_regularizer": null, "depthwise_constraint": null, "pointwise_constraint": null}, "inbound_nodes": [[["block9_sepconv1_act", 0, 0, {}]]]}, {"name": "block9_sepconv1_bn", "class_name": "BatchNormalization", "config": {"name": "block9_sepconv1_bn", "trainable": true, "axis": -1, "momentum": 0.99, "epsilon": 0.001, "center": true, "scale": true, "beta_initializer": {"class_name": "Zeros", "config": {}}, "gamma_initializer": {"class_name": "Ones", "config": {}}, "moving_mean_initializer": {"class_name": "Zeros", "config": {}}, "moving_variance_initializer": {"class_name": "Ones", "config": {}}, "beta_regularizer": null, "gamma_regularizer": null, "beta_constraint": null, "gamma_constraint": null}, "inbound_nodes": [[["block9_sepconv1", 0, 0, {}]]]}, {"name": "block9_sepconv2_act", "class_name": "Activation", "config": {"name": "block9_sepconv2_act", "trainable": true, "activation": "relu"}, "inbound_nodes": [[["block9_sepconv1_bn", 0, 0, {}]]]}, {"name": "block9_sepconv2", "class_name": "SeparableConv2D", "config": {"name": "block9_sepconv2", "trainable": true, "filters": 728, "kernel_size": [3, 3], "strides": [1, 1], "padding": "same", "data_format": "channels_last", "dilation_rate": [1, 1], "activation": "linear", "use_bias": false, "bias_initializer": {"class_name": "Zeros", "config": {}}, "bias_regularizer": null, "activity_regularizer": null, "bias_constraint": null, "depth_multiplier": 1, "depthwise_initializer": {"class_name": "VarianceScaling", "config": {"scale": 1.0, "mode": "fan_avg", "distribution": "uniform", "seed": null}}, "pointwise_initializer": {"class_name": "VarianceScaling", "config": {"scale": 1.0, "mode": "fan_avg", "distribution": "uniform", "seed": null}}, "depthwise_regularizer": null, "pointwise_regularizer": null, "depthwise_constraint": null, "pointwise_constraint": null}, "inbound_nodes": [[["block9_sepconv2_act", 0, 0, {}]]]}, {"name": "block9_sepconv2_bn", "class_name": "BatchNormalization", "config": {"name": "block9_sepconv2_bn", "trainable": true, "axis": -1, "momentum": 0.99, "epsilon": 0.001, "center": true, "scale": true, "beta_initializer": {"class_name": "Zeros", "config": {}}, "gamma_initializer": {"class_name": "Ones", "config": {}}, "moving_mean_initializer": {"class_name": "Zeros", "config": {}}, "moving_variance_initializer": {"class_name": "Ones", "config": {}}, "beta_regularizer": null, "gamma_regularizer": null, "beta_constraint": null, "gamma_constraint": null}, "inbound_nodes": [[["block9_sepconv2", 0, 0, {}]]]}, {"name": "block9_sepconv3_act", "class_name": "Activation", "config": {"name": "block9_sepconv3_act", "trainable": true, "activation": "relu"}, "inbound_nodes": [[["block9_sepconv2_bn", 0, 0, {}]]]}, {"name": "block9_sepconv3", "class_name": "SeparableConv2D", "config": {"name": "block9_sepconv3", "trainable": true, "filters": 728, "kernel_size": [3, 3], "strides": [1, 1], "padding": "same", "data_format": "channels_last", "dilation_rate": [1, 1], "activation": "linear", "use_bias": false, "bias_initializer": {"class_name": "Zeros", "config": {}}, "bias_regularizer": null, "activity_regularizer": null, "bias_constraint": null, "depth_multiplier": 1, "depthwise_initializer": {"class_name": "VarianceScaling", "config": {"scale": 1.0, "mode": "fan_avg", "distribution": "uniform", "seed": null}}, "pointwise_initializer": {"class_name": "VarianceScaling", "config": {"scale": 1.0, "mode": "fan_avg", "distribution": "uniform", "seed": null}}, "depthwise_regularizer": null, "pointwise_regularizer": null, "depthwise_constraint": null, "pointwise_constraint": null}, "inbound_nodes": [[["block9_sepconv3_act", 0, 0, {}]]]}, {"name": "block9_sepconv3_bn", "class_name": "BatchNormalization", "config": {"name": "block9_sepconv3_bn", "trainable": true, "axis": -1, "momentum": 0.99, "epsilon": 0.001, "center": true, "scale": true, "beta_initializer": {"class_name": "Zeros", "config": {}}, "gamma_initializer": {"class_name": "Ones", "config": {}}, "moving_mean_initializer": {"class_name": "Zeros", "config": {}}, "moving_variance_initializer": {"class_name": "Ones", "config": {}}, "beta_regularizer": null, "gamma_regularizer": null, "beta_constraint": null, "gamma_constraint": null}, "inbound_nodes": [[["block9_sepconv3", 0, 0, {}]]]}, {"name": "add_92", "class_name": "Add", "config": {"name": "add_92", "trainable": true}, "inbound_nodes": [[["block9_sepconv3_bn", 0, 0, {}], ["add_91", 0, 0, {}]]]}, {"name": "block10_sepconv1_act", "class_name": "Activation", "config": {"name": "block10_sepconv1_act", "trainable": true, "activation": "relu"}, "inbound_nodes": [[["add_92", 0, 0, {}]]]}, {"name": "block10_sepconv1", "class_name": "SeparableConv2D", "config": {"name": "block10_sepconv1", "trainable": true, "filters": 728, "kernel_size": [3, 3], "strides": [1, 1], "padding": "same", "data_format": "channels_last", "dilation_rate": [1, 1], "activation": "linear", "use_bias": false, "bias_initializer": {"class_name": "Zeros", "config": {}}, "bias_regularizer": null, "activity_regularizer": null, "bias_constraint": null, "depth_multiplier": 1, "depthwise_initializer": {"class_name": "VarianceScaling", "config": {"scale": 1.0, "mode": "fan_avg", "distribution": "uniform", "seed": null}}, "pointwise_initializer": {"class_name": "VarianceScaling", "config": {"scale": 1.0, "mode": "fan_avg", "distribution": "uniform", "seed": null}}, "depthwise_regularizer": null, "pointwise_regularizer": null, "depthwise_constraint": null, "pointwise_constraint": null}, "inbound_nodes": [[["block10_sepconv1_act", 0, 0, {}]]]}, {"name": "block10_sepconv1_bn", "class_name": "BatchNormalization", "config": {"name": "block10_sepconv1_bn", "trainable": true, "axis": -1, "momentum": 0.99, "epsilon": 0.001, "center": true, "scale": true, "beta_initializer": {"class_name": "Zeros", "config": {}}, "gamma_initializer": {"class_name": "Ones", "config": {}}, "moving_mean_initializer": {"class_name": "Zeros", "config": {}}, "moving_variance_initializer": {"class_name": "Ones", "config": {}}, "beta_regularizer": null, "gamma_regularizer": null, "beta_constraint": null, "gamma_constraint": null}, "inbound_nodes": [[["block10_sepconv1", 0, 0, {}]]]}, {"name": "block10_sepconv2_act", "class_name": "Activation", "config": {"name": "block10_sepconv2_act", "trainable": true, "activation": "relu"}, "inbound_nodes": [[["block10_sepconv1_bn", 0, 0, {}]]]}, {"name": "block10_sepconv2", "class_name": "SeparableConv2D", "config": {"name": "block10_sepconv2", "trainable": true, "filters": 728, "kernel_size": [3, 3], "strides": [1, 1], "padding": "same", "data_format": "channels_last", "dilation_rate": [1, 1], "activation": "linear", "use_bias": false, "bias_initializer": {"class_name": "Zeros", "config": {}}, "bias_regularizer": null, "activity_regularizer": null, "bias_constraint": null, "depth_multiplier": 1, "depthwise_initializer": {"class_name": "VarianceScaling", "config": {"scale": 1.0, "mode": "fan_avg", "distribution": "uniform", "seed": null}}, "pointwise_initializer": {"class_name": "VarianceScaling", "config": {"scale": 1.0, "mode": "fan_avg", "distribution": "uniform", "seed": null}}, "depthwise_regularizer": null, "pointwise_regularizer": null, "depthwise_constraint": null, "pointwise_constraint": null}, "inbound_nodes": [[["block10_sepconv2_act", 0, 0, {}]]]}, {"name": "block10_sepconv2_bn", "class_name": "BatchNormalization", "config": {"name": "block10_sepconv2_bn", "trainable": true, "axis": -1, "momentum": 0.99, "epsilon": 0.001, "center": true, "scale": true, "beta_initializer": {"class_name": "Zeros", "config": {}}, "gamma_initializer": {"class_name": "Ones", "config": {}}, "moving_mean_initializer": {"class_name": "Zeros", "config": {}}, "moving_variance_initializer": {"class_name": "Ones", "config": {}}, "beta_regularizer": null, "gamma_regularizer": null, "beta_constraint": null, "gamma_constraint": null}, "inbound_nodes": [[["block10_sepconv2", 0, 0, {}]]]}, {"name": "block10_sepconv3_act", "class_name": "Activation", "config": {"name": "block10_sepconv3_act", "trainable": true, "activation": "relu"}, "inbound_nodes": [[["block10_sepconv2_bn", 0, 0, {}]]]}, {"name": "block10_sepconv3", "class_name": "SeparableConv2D", "config": {"name": "block10_sepconv3", "trainable": true, "filters": 728, "kernel_size": [3, 3], "strides": [1, 1], "padding": "same", "data_format": "channels_last", "dilation_rate": [1, 1], "activation": "linear", "use_bias": false, "bias_initializer": {"class_name": "Zeros", "config": {}}, "bias_regularizer": null, "activity_regularizer": null, "bias_constraint": null, "depth_multiplier": 1, "depthwise_initializer": {"class_name": "VarianceScaling", "config": {"scale": 1.0, "mode": "fan_avg", "distribution": "uniform", "seed": null}}, "pointwise_initializer": {"class_name": "VarianceScaling", "config": {"scale": 1.0, "mode": "fan_avg", "distribution": "uniform", "seed": null}}, "depthwise_regularizer": null, "pointwise_regularizer": null, "depthwise_constraint": null, "pointwise_constraint": null}, "inbound_nodes": [[["block10_sepconv3_act", 0, 0, {}]]]}, {"name": "block10_sepconv3_bn", "class_name": "BatchNormalization", "config": {"name": "block10_sepconv3_bn", "trainable": true, "axis": -1, "momentum": 0.99, "epsilon": 0.001, "center": true, "scale": true, "beta_initializer": {"class_name": "Zeros", "config": {}}, "gamma_initializer": {"class_name": "Ones", "config": {}}, "moving_mean_initializer": {"class_name": "Zeros", "config": {}}, "moving_variance_initializer": {"class_name": "Ones", "config": {}}, "beta_regularizer": null, "gamma_regularizer": null, "beta_constraint": null, "gamma_constraint": null}, "inbound_nodes": [[["block10_sepconv3", 0, 0, {}]]]}, {"name": "add_93", "class_name": "Add", "config": {"name": "add_93", "trainable": true}, "inbound_nodes": [[["block10_sepconv3_bn", 0, 0, {}], ["add_92", 0, 0, {}]]]}, {"name": "block11_sepconv1_act", "class_name": "Activation", "config": {"name": "block11_sepconv1_act", "trainable": true, "activation": "relu"}, "inbound_nodes": [[["add_93", 0, 0, {}]]]}, {"name": "block11_sepconv1", "class_name": "SeparableConv2D", "config": {"name": "block11_sepconv1", "trainable": true, "filters": 728, "kernel_size": [3, 3], "strides": [1, 1], "padding": "same", "data_format": "channels_last", "dilation_rate": [1, 1], "activation": "linear", "use_bias": false, "bias_initializer": {"class_name": "Zeros", "config": {}}, "bias_regularizer": null, "activity_regularizer": null, "bias_constraint": null, "depth_multiplier": 1, "depthwise_initializer": {"class_name": "VarianceScaling", "config": {"scale": 1.0, "mode": "fan_avg", "distribution": "uniform", "seed": null}}, "pointwise_initializer": {"class_name": "VarianceScaling", "config": {"scale": 1.0, "mode": "fan_avg", "distribution": "uniform", "seed": null}}, "depthwise_regularizer": null, "pointwise_regularizer": null, "depthwise_constraint": null, "pointwise_constraint": null}, "inbound_nodes": [[["block11_sepconv1_act", 0, 0, {}]]]}, {"name": "block11_sepconv1_bn", "class_name": "BatchNormalization", "config": {"name": "block11_sepconv1_bn", "trainable": true, "axis": -1, "momentum": 0.99, "epsilon": 0.001, "center": true, "scale": true, "beta_initializer": {"class_name": "Zeros", "config": {}}, "gamma_initializer": {"class_name": "Ones", "config": {}}, "moving_mean_initializer": {"class_name": "Zeros", "config": {}}, "moving_variance_initializer": {"class_name": "Ones", "config": {}}, "beta_regularizer": null, "gamma_regularizer": null, "beta_constraint": null, "gamma_constraint": null}, "inbound_nodes": [[["block11_sepconv1", 0, 0, {}]]]}, {"name": "block11_sepconv2_act", "class_name": "Activation", "config": {"name": "block11_sepconv2_act", "trainable": true, "activation": "relu"}, "inbound_nodes": [[["block11_sepconv1_bn", 0, 0, {}]]]}, {"name": "block11_sepconv2", "class_name": "SeparableConv2D", "config": {"name": "block11_sepconv2", "trainable": true, "filters": 728, "kernel_size": [3, 3], "strides": [1, 1], "padding": "same", "data_format": "channels_last", "dilation_rate": [1, 1], "activation": "linear", "use_bias": false, "bias_initializer": {"class_name": "Zeros", "config": {}}, "bias_regularizer": null, "activity_regularizer": null, "bias_constraint": null, "depth_multiplier": 1, "depthwise_initializer": {"class_name": "VarianceScaling", "config": {"scale": 1.0, "mode": "fan_avg", "distribution": "uniform", "seed": null}}, "pointwise_initializer": {"class_name": "VarianceScaling", "config": {"scale": 1.0, "mode": "fan_avg", "distribution": "uniform", "seed": null}}, "depthwise_regularizer": null, "pointwise_regularizer": null, "depthwise_constraint": null, "pointwise_constraint": null}, "inbound_nodes": [[["block11_sepconv2_act", 0, 0, {}]]]}, {"name": "block11_sepconv2_bn", "class_name": "BatchNormalization", "config": {"name": "block11_sepconv2_bn", "trainable": true, "axis": -1, "momentum": 0.99, "epsilon": 0.001, "center": true, "scale": true, "beta_initializer": {"class_name": "Zeros", "config": {}}, "gamma_initializer": {"class_name": "Ones", "config": {}}, "moving_mean_initializer": {"class_name": "Zeros", "config": {}}, "moving_variance_initializer": {"class_name": "Ones", "config": {}}, "beta_regularizer": null, "gamma_regularizer": null, "beta_constraint": null, "gamma_constraint": null}, "inbound_nodes": [[["block11_sepconv2", 0, 0, {}]]]}, {"name": "block11_sepconv3_act", "class_name": "Activation", "config": {"name": "block11_sepconv3_act", "trainable": true, "activation": "relu"}, "inbound_nodes": [[["block11_sepconv2_bn", 0, 0, {}]]]}, {"name": "block11_sepconv3", "class_name": "SeparableConv2D", "config": {"name": "block11_sepconv3", "trainable": true, "filters": 728, "kernel_size": [3, 3], "strides": [1, 1], "padding": "same", "data_format": "channels_last", "dilation_rate": [1, 1], "activation": "linear", "use_bias": false, "bias_initializer": {"class_name": "Zeros", "config": {}}, "bias_regularizer": null, "activity_regularizer": null, "bias_constraint": null, "depth_multiplier": 1, "depthwise_initializer": {"class_name": "VarianceScaling", "config": {"scale": 1.0, "mode": "fan_avg", "distribution": "uniform", "seed": null}}, "pointwise_initializer": {"class_name": "VarianceScaling", "config": {"scale": 1.0, "mode": "fan_avg", "distribution": "uniform", "seed": null}}, "depthwise_regularizer": null, "pointwise_regularizer": null, "depthwise_constraint": null, "pointwise_constraint": null}, "inbound_nodes": [[["block11_sepconv3_act", 0, 0, {}]]]}, {"name": "block11_sepconv3_bn", "class_name": "BatchNormalization", "config": {"name": "block11_sepconv3_bn", "trainable": true, "axis": -1, "momentum": 0.99, "epsilon": 0.001, "center": true, "scale": true, "beta_initializer": {"class_name": "Zeros", "config": {}}, "gamma_initializer": {"class_name": "Ones", "config": {}}, "moving_mean_initializer": {"class_name": "Zeros", "config": {}}, "moving_variance_initializer": {"class_name": "Ones", "config": {}}, "beta_regularizer": null, "gamma_regularizer": null, "beta_constraint": null, "gamma_constraint": null}, "inbound_nodes": [[["block11_sepconv3", 0, 0, {}]]]}, {"name": "add_94", "class_name": "Add", "config": {"name": "add_94", "trainable": true}, "inbound_nodes": [[["block11_sepconv3_bn", 0, 0, {}], ["add_93", 0, 0, {}]]]}, {"name": "block12_sepconv1_act", "class_name": "Activation", "config": {"name": "block12_sepconv1_act", "trainable": true, "activation": "relu"}, "inbound_nodes": [[["add_94", 0, 0, {}]]]}, {"name": "block12_sepconv1", "class_name": "SeparableConv2D", "config": {"name": "block12_sepconv1", "trainable": true, "filters": 728, "kernel_size": [3, 3], "strides": [1, 1], "padding": "same", "data_format": "channels_last", "dilation_rate": [1, 1], "activation": "linear", "use_bias": false, "bias_initializer": {"class_name": "Zeros", "config": {}}, "bias_regularizer": null, "activity_regularizer": null, "bias_constraint": null, "depth_multiplier": 1, "depthwise_initializer": {"class_name": "VarianceScaling", "config": {"scale": 1.0, "mode": "fan_avg", "distribution": "uniform", "seed": null}}, "pointwise_initializer": {"class_name": "VarianceScaling", "config": {"scale": 1.0, "mode": "fan_avg", "distribution": "uniform", "seed": null}}, "depthwise_regularizer": null, "pointwise_regularizer": null, "depthwise_constraint": null, "pointwise_constraint": null}, "inbound_nodes": [[["block12_sepconv1_act", 0, 0, {}]]]}, {"name": "block12_sepconv1_bn", "class_name": "BatchNormalization", "config": {"name": "block12_sepconv1_bn", "trainable": true, "axis": -1, "momentum": 0.99, "epsilon": 0.001, "center": true, "scale": true, "beta_initializer": {"class_name": "Zeros", "config": {}}, "gamma_initializer": {"class_name": "Ones", "config": {}}, "moving_mean_initializer": {"class_name": "Zeros", "config": {}}, "moving_variance_initializer": {"class_name": "Ones", "config": {}}, "beta_regularizer": null, "gamma_regularizer": null, "beta_constraint": null, "gamma_constraint": null}, "inbound_nodes": [[["block12_sepconv1", 0, 0, {}]]]}, {"name": "block12_sepconv2_act", "class_name": "Activation", "config": {"name": "block12_sepconv2_act", "trainable": true, "activation": "relu"}, "inbound_nodes": [[["block12_sepconv1_bn", 0, 0, {}]]]}, {"name": "block12_sepconv2", "class_name": "SeparableConv2D", "config": {"name": "block12_sepconv2", "trainable": true, "filters": 728, "kernel_size": [3, 3], "strides": [1, 1], "padding": "same", "data_format": "channels_last", "dilation_rate": [1, 1], "activation": "linear", "use_bias": false, "bias_initializer": {"class_name": "Zeros", "config": {}}, "bias_regularizer": null, "activity_regularizer": null, "bias_constraint": null, "depth_multiplier": 1, "depthwise_initializer": {"class_name": "VarianceScaling", "config": {"scale": 1.0, "mode": "fan_avg", "distribution": "uniform", "seed": null}}, "pointwise_initializer": {"class_name": "VarianceScaling", "config": {"scale": 1.0, "mode": "fan_avg", "distribution": "uniform", "seed": null}}, "depthwise_regularizer": null, "pointwise_regularizer": null, "depthwise_constraint": null, "pointwise_constraint": null}, "inbound_nodes": [[["block12_sepconv2_act", 0, 0, {}]]]}, {"name": "block12_sepconv2_bn", "class_name": "BatchNormalization", "config": {"name": "block12_sepconv2_bn", "trainable": true, "axis": -1, "momentum": 0.99, "epsilon": 0.001, "center": true, "scale": true, "beta_initializer": {"class_name": "Zeros", "config": {}}, "gamma_initializer": {"class_name": "Ones", "config": {}}, "moving_mean_initializer": {"class_name": "Zeros", "config": {}}, "moving_variance_initializer": {"class_name": "Ones", "config": {}}, "beta_regularizer": null, "gamma_regularizer": null, "beta_constraint": null, "gamma_constraint": null}, "inbound_nodes": [[["block12_sepconv2", 0, 0, {}]]]}, {"name": "block12_sepconv3_act", "class_name": "Activation", "config": {"name": "block12_sepconv3_act", "trainable": true, "activation": "relu"}, "inbound_nodes": [[["block12_sepconv2_bn", 0, 0, {}]]]}, {"name": "block12_sepconv3", "class_name": "SeparableConv2D", "config": {"name": "block12_sepconv3", "trainable": true, "filters": 728, "kernel_size": [3, 3], "strides": [1, 1], "padding": "same", "data_format": "channels_last", "dilation_rate": [1, 1], "activation": "linear", "use_bias": false, "bias_initializer": {"class_name": "Zeros", "config": {}}, "bias_regularizer": null, "activity_regularizer": null, "bias_constraint": null, "depth_multiplier": 1, "depthwise_initializer": {"class_name": "VarianceScaling", "config": {"scale": 1.0, "mode": "fan_avg", "distribution": "uniform", "seed": null}}, "pointwise_initializer": {"class_name": "VarianceScaling", "config": {"scale": 1.0, "mode": "fan_avg", "distribution": "uniform", "seed": null}}, "depthwise_regularizer": null, "pointwise_regularizer": null, "depthwise_constraint": null, "pointwise_constraint": null}, "inbound_nodes": [[["block12_sepconv3_act", 0, 0, {}]]]}, {"name": "block12_sepconv3_bn", "class_name": "BatchNormalization", "config": {"name": "block12_sepconv3_bn", "trainable": true, "axis": -1, "momentum": 0.99, "epsilon": 0.001, "center": true, "scale": true, "beta_initializer": {"class_name": "Zeros", "config": {}}, "gamma_initializer": {"class_name": "Ones", "config": {}}, "moving_mean_initializer": {"class_name": "Zeros", "config": {}}, "moving_variance_initializer": {"class_name": "Ones", "config": {}}, "beta_regularizer": null, "gamma_regularizer": null, "beta_constraint": null, "gamma_constraint": null}, "inbound_nodes": [[["block12_sepconv3", 0, 0, {}]]]}, {"name": "add_95", "class_name": "Add", "config": {"name": "add_95", "trainable": true}, "inbound_nodes": [[["block12_sepconv3_bn", 0, 0, {}], ["add_94", 0, 0, {}]]]}, {"name": "block13_sepconv1_act", "class_name": "Activation", "config": {"name": "block13_sepconv1_act", "trainable": true, "activation": "relu"}, "inbound_nodes": [[["add_95", 0, 0, {}]]]}, {"name": "block13_sepconv1", "class_name": "SeparableConv2D", "config": {"name": "block13_sepconv1", "trainable": true, "filters": 728, "kernel_size": [3, 3], "strides": [1, 1], "padding": "same", "data_format": "channels_last", "dilation_rate": [1, 1], "activation": "linear", "use_bias": false, "bias_initializer": {"class_name": "Zeros", "config": {}}, "bias_regularizer": null, "activity_regularizer": null, "bias_constraint": null, "depth_multiplier": 1, "depthwise_initializer": {"class_name": "VarianceScaling", "config": {"scale": 1.0, "mode": "fan_avg", "distribution": "uniform", "seed": null}}, "pointwise_initializer": {"class_name": "VarianceScaling", "config": {"scale": 1.0, "mode": "fan_avg", "distribution": "uniform", "seed": null}}, "depthwise_regularizer": null, "pointwise_regularizer": null, "depthwise_constraint": null, "pointwise_constraint": null}, "inbound_nodes": [[["block13_sepconv1_act", 0, 0, {}]]]}, {"name": "block13_sepconv1_bn", "class_name": "BatchNormalization", "config": {"name": "block13_sepconv1_bn", "trainable": true, "axis": -1, "momentum": 0.99, "epsilon": 0.001, "center": true, "scale": true, "beta_initializer": {"class_name": "Zeros", "config": {}}, "gamma_initializer": {"class_name": "Ones", "config": {}}, "moving_mean_initializer": {"class_name": "Zeros", "config": {}}, "moving_variance_initializer": {"class_name": "Ones", "config": {}}, "beta_regularizer": null, "gamma_regularizer": null, "beta_constraint": null, "gamma_constraint": null}, "inbound_nodes": [[["block13_sepconv1", 0, 0, {}]]]}, {"name": "block13_sepconv2_act", "class_name": "Activation", "config": {"name": "block13_sepconv2_act", "trainable": true, "activation": "relu"}, "inbound_nodes": [[["block13_sepconv1_bn", 0, 0, {}]]]}, {"name": "block13_sepconv2", "class_name": "SeparableConv2D", "config": {"name": "block13_sepconv2", "trainable": true, "filters": 1024, "kernel_size": [3, 3], "strides": [1, 1], "padding": "same", "data_format": "channels_last", "dilation_rate": [1, 1], "activation": "linear", "use_bias": false, "bias_initializer": {"class_name": "Zeros", "config": {}}, "bias_regularizer": null, "activity_regularizer": null, "bias_constraint": null, "depth_multiplier": 1, "depthwise_initializer": {"class_name": "VarianceScaling", "config": {"scale": 1.0, "mode": "fan_avg", "distribution": "uniform", "seed": null}}, "pointwise_initializer": {"class_name": "VarianceScaling", "config": {"scale": 1.0, "mode": "fan_avg", "distribution": "uniform", "seed": null}}, "depthwise_regularizer": null, "pointwise_regularizer": null, "depthwise_constraint": null, "pointwise_constraint": null}, "inbound_nodes": [[["block13_sepconv2_act", 0, 0, {}]]]}, {"name": "block13_sepconv2_bn", "class_name": "BatchNormalization", "config": {"name": "block13_sepconv2_bn", "trainable": true, "axis": -1, "momentum": 0.99, "epsilon": 0.001, "center": true, "scale": true, "beta_initializer": {"class_name": "Zeros", "config": {}}, "gamma_initializer": {"class_name": "Ones", "config": {}}, "moving_mean_initializer": {"class_name": "Zeros", "config": {}}, "moving_variance_initializer": {"class_name": "Ones", "config": {}}, "beta_regularizer": null, "gamma_regularizer": null, "beta_constraint": null, "gamma_constraint": null}, "inbound_nodes": [[["block13_sepconv2", 0, 0, {}]]]}, {"name": "conv2d_32", "class_name": "Conv2D", "config": {"name": "conv2d_32", "trainable": true, "filters": 1024, "kernel_size": [1, 1], "strides": [2, 2], "padding": "same", "data_format": "channels_last", "dilation_rate": [1, 1], "activation": "linear", "use_bias": false, "kernel_initializer": {"class_name": "VarianceScaling", "config": {"scale": 1.0, "mode": "fan_avg", "distribution": "uniform", "seed": null}}, "bias_initializer": {"class_name": "Zeros", "config": {}}, "kernel_regularizer": null, "bias_regularizer": null, "activity_regularizer": null, "kernel_constraint": null, "bias_constraint": null}, "inbound_nodes": [[["add_95", 0, 0, {}]]]}, {"name": "block13_pool", "class_name": "MaxPooling2D", "config": {"name": "block13_pool", "trainable": true, "pool_size": [3, 3], "padding": "same", "strides": [2, 2], "data_format": "channels_last"}, "inbound_nodes": [[["block13_sepconv2_bn", 0, 0, {}]]]}, {"name": "batch_normalization_32", "class_name": "BatchNormalization", "config": {"name": "batch_normalization_32", "trainable": true, "axis": -1, "momentum": 0.99, "epsilon": 0.001, "center": true, "scale": true, "beta_initializer": {"class_name": "Zeros", "config": {}}, "gamma_initializer": {"class_name": "Ones", "config": {}}, "moving_mean_initializer": {"class_name": "Zeros", "config": {}}, "moving_variance_initializer": {"class_name": "Ones", "config": {}}, "beta_regularizer": null, "gamma_regularizer": null, "beta_constraint": null, "gamma_constraint": null}, "inbound_nodes": [[["conv2d_32", 0, 0, {}]]]}, {"name": "add_96", "class_name": "Add", "config": {"name": "add_96", "trainable": true}, "inbound_nodes": [[["block13_pool", 0, 0, {}], ["batch_normalization_32", 0, 0, {}]]]}, {"name": "block14_sepconv1", "class_name": "SeparableConv2D", "config": {"name": "block14_sepconv1", "trainable": true, "filters": 1536, "kernel_size": [3, 3], "strides": [1, 1], "padding": "same", "data_format": "channels_last", "dilation_rate": [1, 1], "activation": "linear", "use_bias": false, "bias_initializer": {"class_name": "Zeros", "config": {}}, "bias_regularizer": null, "activity_regularizer": null, "bias_constraint": null, "depth_multiplier": 1, "depthwise_initializer": {"class_name": "VarianceScaling", "config": {"scale": 1.0, "mode": "fan_avg", "distribution": "uniform", "seed": null}}, "pointwise_initializer": {"class_name": "VarianceScaling", "config": {"scale": 1.0, "mode": "fan_avg", "distribution": "uniform", "seed": null}}, "depthwise_regularizer": null, "pointwise_regularizer": null, "depthwise_constraint": null, "pointwise_constraint": null}, "inbound_nodes": [[["add_96", 0, 0, {}]]]}, {"name": "block14_sepconv1_bn", "class_name": "BatchNormalization", "config": {"name": "block14_sepconv1_bn", "trainable": true, "axis": -1, "momentum": 0.99, "epsilon": 0.001, "center": true, "scale": true, "beta_initializer": {"class_name": "Zeros", "config": {}}, "gamma_initializer": {"class_name": "Ones", "config": {}}, "moving_mean_initializer": {"class_name": "Zeros", "config": {}}, "moving_variance_initializer": {"class_name": "Ones", "config": {}}, "beta_regularizer": null, "gamma_regularizer": null, "beta_constraint": null, "gamma_constraint": null}, "inbound_nodes": [[["block14_sepconv1", 0, 0, {}]]]}, {"name": "block14_sepconv1_act", "class_name": "Activation", "config": {"name": "block14_sepconv1_act", "trainable": true, "activation": "relu"}, "inbound_nodes": [[["block14_sepconv1_bn", 0, 0, {}]]]}, {"name": "block14_sepconv2", "class_name": "SeparableConv2D", "config": {"name": "block14_sepconv2", "trainable": true, "filters": 2048, "kernel_size": [3, 3], "strides": [1, 1], "padding": "same", "data_format": "channels_last", "dilation_rate": [1, 1], "activation": "linear", "use_bias": false, "bias_initializer": {"class_name": "Zeros", "config": {}}, "bias_regularizer": null, "activity_regularizer": null, "bias_constraint": null, "depth_multiplier": 1, "depthwise_initializer": {"class_name": "VarianceScaling", "config": {"scale": 1.0, "mode": "fan_avg", "distribution": "uniform", "seed": null}}, "pointwise_initializer": {"class_name": "VarianceScaling", "config": {"scale": 1.0, "mode": "fan_avg", "distribution": "uniform", "seed": null}}, "depthwise_regularizer": null, "pointwise_regularizer": null, "depthwise_constraint": null, "pointwise_constraint": null}, "inbound_nodes": [[["block14_sepconv1_act", 0, 0, {}]]]}, {"name": "block14_sepconv2_bn", "class_name": "BatchNormalization", "config": {"name": "block14_sepconv2_bn", "trainable": true, "axis": -1, "momentum": 0.99, "epsilon": 0.001, "center": true, "scale": true, "beta_initializer": {"class_name": "Zeros", "config": {}}, "gamma_initializer": {"class_name": "Ones", "config": {}}, "moving_mean_initializer": {"class_name": "Zeros", "config": {}}, "moving_variance_initializer": {"class_name": "Ones", "config": {}}, "beta_regularizer": null, "gamma_regularizer": null, "beta_constraint": null, "gamma_constraint": null}, "inbound_nodes": [[["block14_sepconv2", 0, 0, {}]]]}, {"name": "block14_sepconv2_act", "class_name": "Activation", "config": {"name": "block14_sepconv2_act", "trainable": true, "activation": "relu"}, "inbound_nodes": [[["block14_sepconv2_bn", 0, 0, {}]]]}], "input_layers": [["input_15", 0, 0]], "output_layers": [["block14_sepconv2_act", 0, 0]]}, "inbound_nodes": [[["input_16", 0, 0, {}]]]}, {"name": "global_average_pooling2d_8", "class_name": "GlobalAveragePooling2D", "config": {"name": "global_average_pooling2d_8", "trainable": true, "data_format": "channels_last"}, "inbound_nodes": [[["xception", 1, 0, {}]]]}, {"name": "dense_10", "class_name": "Dense", "config": {"name": "dense_10", "trainable": true, "units": 512, "activation": "relu", "use_bias": true, "kernel_initializer": {"class_name": "VarianceScaling", "config": {"scale": 1.0, "mode": "fan_avg", "distribution": "uniform", "seed": null}}, "bias_initializer": {"class_name": "Zeros", "config": {}}, "kernel_regularizer": null, "bias_regularizer": null, "activity_regularizer": null, "kernel_constraint": null, "bias_constraint": null}, "inbound_nodes": [[["global_average_pooling2d_8", 0, 0, {}]]]}, {"name": "dense_11", "class_name": "Dense", "config": {"name": "dense_11", "trainable": true, "units": 2, "activation": "softmax", "use_bias": true, "kernel_initializer": {"class_name": "VarianceScaling", "config": {"scale": 1.0, "mode": "fan_avg", "distribution": "uniform", "seed": null}}, "bias_initializer": {"class_name": "Zeros", "config": {}}, "kernel_regularizer": null, "bias_regularizer": null, "activity_regularizer": null, "kernel_constraint": null, "bias_constraint": null}, "inbound_nodes": [[["dense_10", 0, 0, {}]]]}], "input_layers": [["input_16", 0, 0]], "output_layers": [["dense_11", 0, 0]]}, "keras_version": "2.0.8", "backend": "tensorflow"}